_________________________________________________________________
Layer (type)                 Output Shape              Param #   
=================================================================
conv2d_1 (Conv2D)            (None, 254, 254, 32)      896       
_________________________________________________________________
max_pooling2d_1 (MaxPooling2 (None, 127, 127, 32)      0         
_________________________________________________________________
conv2d_2 (Conv2D)            (None, 125, 125, 64)      18496     
_________________________________________________________________
dropout_1 (Dropout)          (None, 125, 125, 64)      0         
_________________________________________________________________
flatten_1 (Flatten)          (None, 1000000)           0         
_________________________________________________________________
dropout_2 (Dropout)          (None, 1000000)           0         
_________________________________________________________________
dense_1 (Dense)              (None, 24)                24000024  
=================================================================
Total params: 24,019,416.0
Trainable params: 24,019,416.0
Non-trainable params: 0.0
_________________________________________________________________
[200, 200, 200, 200, 200, 200, 200, 200, 200, 200, 200, 200, 200, 200, 200, 200, 200, 200, 200, 200, 200, 200, 200, 200]
Found 4800 images belonging to 24 classes.
4800
(4800, 24)
letter	a		b		c		d		e		f		g		h		i		k		l		m		n		o		p		q		r		s		t		u		v		w		x		y
…
